trained_models/trained_model_task_2.pt (torch, 105551 bytes, 7 tensors)

lin1.weight f4 [123, 187]
0	0x3ef6ae41	0.4817982
1	0x3e0bbced	0.13646288
2	0xbd7dd9c9	-0.061975274
3	0x3f012ba5	0.5045722
4	0xbe865cb5	-0.26242605
5	0xbde87d2c	-0.11352
6	0x3e530e56	0.20610937
7	0x3e5e39b4	0.217017
8	0xbc39905a	-0.01132592
9	0xbd3a32a1	-0.04545844
10	0x3d044014	0.032287672
11	0x3dea944c	0.11454067
12	0x3eae22e8	0.34011006
13	0x3efec6de	0.497611
14	0x3f00832a	0.5020014
15	0x3ed78764	0.42095482
16	0x3ec6ec08	0.38851953
17	0x3e900853	0.2813135
18	0x3e6e6963	0.2328239
19	0x3e40d801	0.18832399
20	0x3dadc4c0	0.08484793
21	0x3de08b0d	0.10964022
22	0x3e2f34dc	0.17110008
23	0x3e0441ff	0.129158
24	0x3da9fc63	0.08300092
25	0xbd85adaa	-0.065272644
26	0x3cf5a3d6	0.02998535
27	0x3d857422	0.06516291
28	0x3e605f7b	0.21911423
29	0x3ebaea04	0.36506665
30	0x3e2fd506	0.17171106
31	0x3ddbfc05	0.10741428
32	0x3e8eeb93	0.27914104
33	0x3e0767f5	0.1322325
34	0x3ea72d4a	0.3265174
35	0x3e71c88b	0.23611657
36	0x3e7376d6	0.23775801
37	0x3cebf88a	0.028805036
38	0x3da32964	0.07966879
39	0x3d988703	0.074476264
40	0xbd8ed0a8	-0.06973392
41	0xbe3b6f5d	-0.183042
42	0xbde3f102	-0.11129953
43	0x3d8ff5a4	0.07029274
44	0xbe9c2149	-0.30494145
45	0xbe5a6c47	-0.21330367
46	0xbea05ad8	-0.31319308
47	0xbe1b942d	-0.15193243
48	0xbe3cc27e	-0.18433568
49	0xbf113cde	-0.567335
50	0xbecfea8b	-0.4060863
51	0xbec8b246	-0.39198512
52	0xbf08853a	-0.5332829
53	0xbe96bcf2	-0.2944103
54	0xbe1cecdd	-0.15324731
55	0xbea5e44a	-0.32400733
56	0x3de33c40	0.11095476
57	0x3da8aedd	0.082364775
58	0x3e80e899	0.25177458
59	0x3cf3bdaf	0.029753534
60	0xbea37644	-0.31926167
61	0xbd31fed5	-0.043455917
62	0xbe44dc93	-0.19224767
63	0xbf9a92e1	-1.2076074
64	0xbfd5b473	-1.6695694
65	0xbf4c84a1	-0.79889876
66	0xbf19117a	-0.5979229
67	0xbea45770	-0.3209796
68	0xbf1a362f	-0.6023893
69	0xbf24f2f9	-0.64433247
70	0xbecf0b1a	-0.40438157
71	0x3dbbfe27	0.09179335
72	0xbe53afad	-0.20672484
73	0xbec867bd	-0.39141646
74	0xbf6c2f70	-0.92259884
75	0xbee97ebc	-0.45604503
76	0x3df53f93	0.119750164
77	0x3df41ee7	0.11919957
78	0x3e1a180c	0.15048236
79	0x3c856697	0.01628427
80	0x3ea3728c	0.3192333
81	0x3efbec21	0.4920359
82	0x3e180318	0.1484493
83	0xbe0b2c91	-0.1359122
84	0xbed544c4	-0.41654027
85	0x3e68bb68	0.2272774
86	0xbdc68fa1	-0.09695364
87	0x3e8934fd	0.2679824
88	0x3d59d1ce	0.0531786
89	0x3e00ab50	0.1256535
90	0x3e307551	0.17232253
91	0x3d68528e	0.056719355
92	0xbe3d318c	-0.18475932
93	0xbdbf80e5	-0.093507566
94	0xbebba95d	-0.3665265
95	0xbdadf5fc	-0.084941834
96	0xbd17b853	-0.03704102
97	0x3dbcb4cc	0.09214172
98	0xbf82ea26	-1.0227706
99	0x3ed15608	0.4088595
100	0x3ea3f773	0.32024726
101	0xbf015a7c	-0.50528693
102	0xbe54a16f	-0.20764707
103	0xbe99a132	-0.30005795
104	0xbebf637d	-0.3738059
105	0x3e97e5f6	0.29667634
106	0xbd95cfb9	-0.073150106
107	0xbcab5915	-0.020916501
108	0xbecf507b	-0.4049109
109	0x3ed611f2	0.41810566
110	0xbf47fc11	-0.78119
111	0xbf0ec066	-0.55762327
112	0x3e0087e9	0.12551846
113	0x3e98235a	0.2971447
114	0xbe101e76	-0.1407412
115	0x3ed01ddc	0.4064778
116	0x3eb0d590	0.34537935
117	0x3c87f0d2	0.016594324
118	0xbe4d8d0f	-0.20073341
119	0xbed989ef	-0.42488047
120	0x3e16a3a0	0.14710855
121	0x3f25f4f6	0.64826906
122	0x3ef3471c	0.4751519
123	0x3e832e76	0.25621384
124	0x3f5a2427	0.85211414
125	0x3f060abe	0.5236014
126	0xbdd8a52b	-0.10578378
127	0xbdff8456	-0.12476413
128	0xbcf73c33	-0.030180072
129	0x3bcbeb01	0.006223083
130	0xbe4c5878	-0.19955623
131	0xbe23b962	-0.15988687
132	0xbd7c8b52	-0.061656304
133	0xbf06dbbd	-0.52679044
134	0x3ec8bfd7	0.39208862
135	0xbdffd493	-0.12491717
136	0xbe252c29	-0.16130127
137	0xbe038537	-0.12843786
138	0xbd85e4c7	-0.065377764
139	0x3e35395e	0.17697665
140	0x3e49c4aa	0.19703928
141	0x3f13374b	0.57506245
142	0x3ea99064	0.33117974
143	0x3da89485	0.08231453
144	0xbeb12185	-0.34595886
145	0x3e298e59	0.16558208
146	0x3dc74d66	0.097315595
147	0x3ee8c671	0.454639
148	0xbe31cb0b	-0.17362611
149	0xbede35cb	-0.43400416
150	0xbea8954f	-0.32926413
151	0xbe7df912	-0.24802044
152	0x3efc87fd	0.493225
153	0x3c6f5099	0.014606618
154	0xbf1cc6c1	-0.61240774
155	0x3ea60d8d	0.32432213
156	0x3ebdf5b7	0.37101528
157	0xbf144e93	-0.57932395
158	0xbfb43b44	-1.4080586
159	0xbf144755	-0.57921344
160	0x3ddf8600	0.1091423
161	0x3e651929	0.22372879
162	0x3f10f917	0.5663008
163	0x3ec27a43	0.37983903
164	0xbe700093	-0.23437719
165	0xbef114fa	-0.47086316
166	0xbf14647e	-0.5796584
167	0x3eef557e	0.46744913
168	0xbf2ba765	-0.670523
169	0xbefce64b	-0.4939445
170	0xbd7b10cc	-0.061295316
171	0x3f281bbe	0.6566733
172	0xbd1a855c	-0.037724838
173	0x3ce8d1d9	0.028420376
174	0xbf307d79	-0.68941456
175	0xbf801f42	-1.0009539
176	0xbf26d3d2	-0.6516696
177	0xbec261d6	-0.37965268
178	0xbe774bdc	-0.24150032
179	0x3e5bf858	0.21481454
180	0x3efa2b3d	0.48861113
181	0x3ee276b0	0.44231176
182	0x3c7abd53	0.0153039275
183	0xbe37309d	-0.17889638
184	0x3d0bffa0	0.03417933
185	0x3ef72f40	0.48278236
186	0x3f11bbbc	0.56927085
187	0xbf0564ef	-0.5210714
188	0xbe951373	-0.291164
189	0x3e6ebddf	0.23314618
190	0xbebd0949	-0.36921147
191	0xbe9c06fb	-0.30474076
192	0x3c23f72d	0.010007662
193	0xbe295f9c	-0.16540378
194	0xbd446d6e	-0.047955923
195	0x3e7e4901	0.24832536
196	0x3dcadd0c	0.099054426
197	0xbe8ecadb	-0.2788914
198	0xbeb4a2d2	-0.35280472
199	0xbeb503fe	-0.35354608
200	0xbf261242	-0.6487161
201	0xbee01795	-0.43767992
202	0xbf08d41c	-0.53448653
203	0xbeb5aa9b	-0.35481724
204	0xbe53f001	-0.20697023
205	0xbe0b7e0a	-0.13622299
206	0xbe422917	-0.18960987
207	0xbd8434f2	-0.06455411
208	0xbdcad357	-0.09903591
209	0xbda219f8	-0.079151094
210	0xbe026f0c	-0.12737674
211	0x3dbdcb4e	0.09267293
212	0x3e6f08f9	0.23343267
213	0x3e0899f0	0.13339972
214	0x3dacf59c	0.08445284
215	0x3dfc25a5	0.123118676
216	0xbd898fd8	-0.06716889
217	0xbdab91e7	-0.08377438
218	0xbe7c8488	-0.24659932
219	0xbedff2db	-0.43739972
220	0xbed567cf	-0.41680762
221	0xbef59a34	-0.4796921
222	0xbea3af02	-0.31969458
223	0xbe822a3f	-0.25422856
224	0xbe49ceed	-0.19707842
225	0x3d5213f2	0.051288553
226	0x3d80f934	0.06297532
227	0x3e747fb6	0.23876843
228	0x3ebe8c84	0.3721658
229	0x3ebbd488	0.36685586
230	0x3e910ab8	0.2832849
231	0x3ec8016e	0.3906359
232	0x3ef9b36d	0.48769704
233	0x3f00e266	0.50345457
234	0x3e8dca47	0.27693388
235	0x3e9c3377	0.30508015
236	0x3ed78fbb	0.42101845
237	0x3ef2884f	0.4736962
238	0x3e916ee6	0.2840492
239	0x3ed71d5c	0.42014587
240	0x3e46591e	0.19369933
241	0x3d81c22c	0.063358635
242	0x3e3bf960	0.18356848
243	0x3e80c3c5	0.2514936
244	0xbd9ae520	-0.075632334
245	0xbcc0974e	-0.023509648
246	0x3e3ebb48	0.1862613
247	0x3ed6c49e	0.41946882
248	0x3e261a11	0.16220881
249	0x3e5362ec	0.20643204
250	0x3e9903f0	0.29885817
251	0x3f3c2aa6	0.73502576
252	0x3eb9739e	0.3622102
253	0x3e112a69	0.14176334
254	0x3e345808	0.17611706
255	0x3eb8da39	0.3610399

lin1.bias f4 [123]
0	0x3e195636	0.14974293
1	0x3cdd7ef5	0.027038077
2	0x3e1f1a10	0.15537286
3	0xbee01229	-0.43763855
4	0x3d87c3bb	0.066291295
5	0xbe296c77	-0.16545282
6	0x3d2069cf	0.039163407
7	0x3e7a20ec	0.24426621
8	0x3e8eb69a	0.2787369
9	0x3ef032d1	0.4691377
10	0x3e501b52	0.20322922
11	0x3ea79abd	0.32735243
12	0xbf33f26d	-0.7029179
13	0xbe3795b1	-0.17928196
14	0x3cc95277	0.024575455
15	0xbea2322e	-0.3167891
16	0xbec541dc	-0.3852681
17	0x3d949e82	0.072567955
18	0xbaba8ab8	-0.0014232015
19	0x3e6576da	0.2240862
20	0x3e5a4f40	0.21319294
21	0xbdcc16ee	-0.09965311
22	0x3e8cff86	0.275387
23	0xbeb0167a	-0.34392148
24	0x3ec06517	0.37577125
25	0x3dc02187	0.09381395
26	0xbebdbb59	-0.37056997
27	0x3ec1dd70	0.37864256
28	0xbf1b49d0	-0.60659504
29	0x3e962192	0.29322487
30	0x3c3066b2	0.010766672
31	0xbd88bd49	-0.06676728
32	0xbe6bc7e3	-0.2302547
33	0xbe55d5d1	-0.20882346
34	0xbe254793	-0.16140585
35	0x3e6d2b8b	0.23161142
36	0x3e4f5d74	0.20250493
37	0x3e84278d	0.25811425
38	0xbdb81e14	-0.08990112
39	0xbe5a9939	-0.21347512
40	0xbe26c9b8	-0.16287887
41	0x3efa5c53	0.48898563
42	0x3eb03a87	0.34419653
43	0x3ee9fd5a	0.45701104
44	0xbeeee5cc	-0.46659696
45	0xbe6b5c20	-0.22984362
46	0xbf1081d4	-0.564481
47	0xbe0afe44	-0.13573557
48	0xbf0134d9	-0.50471264
49	0x3e9a7818	0.3016975
50	0x3e68996b	0.22714774
51	0xbeaed6ce	-0.34148258
52	0x3e998deb	0.29991087
53	0xbedffd4f	-0.43747947
54	0x3eae2434	0.34011996
55	0xbebf9965	-0.37421718
56	0xbe1d7cea	-0.15379682
57	0xbe5591f8	-0.20856464
58	0xbe524715	-0.20534928
59	0xbc836da7	-0.016043497
60	0x3e699ccf	0.22813724
61	0x3d90b411	0.07065595
62	0x3d0ed979	0.034875367
63	0xbe7174ac	-0.23579663
64	0xbe770559	-0.24123134
65	0x3d52b4c3	0.05144192
66	0x3ebb8f21	0.36632636
67	0xbdb92e9f	-0.090420954
68	0x3ddbc8bb	0.10731646
69	0xbeb0e4fb	-0.34549698
70	0xbe4e094b	-0.20120732
71	0x3efb6324	0.49099076
72	0x3e1458e1	0.1448703
73	0x3dfed737	0.12443393
74	0xbc798877	-0.01523029
75	0xbde53514	-0.111917645
76	0xbe199b30	-0.15000606
77	0xbea9e8a0	-0.3318529
78	0x3e49dc4a	0.1971294
79	0x3ea0fa4e	0.31440967
80	0xbddcaf46	-0.10775618
81	0xbe8c360b	-0.27384982
82	0x3cd0dadd	0.025494987
83	0x3d4815f3	0.048849057
84	0x3e03001d	0.12793012
85	0x3b3e54bd	0.0029042207
86	0x3eb7e7d1	0.3591905
87	0x3f18d396	0.59697855
88	0xbce10547	-0.027468337
89	0xbe61dc6a	-0.22056738
90	0xbf42143c	-0.75812125
91	0xbe4bea76	-0.19913658
92	0xbec27d0f	-0.37986037
93	0xbe168e26	-0.14702663
94	0x3e0033a0	0.12519693
95	0x3de4055c	0.11133835
96	0x3d388fa6	0.04505887
97	0xbea9eeba	-0.33189946
98	0xbe8bee07	-0.27330038
99	0x3e5dfa9b	0.2167763
100	0xbdeaba3d	-0.114613034
101	0x3e61f962	0.22067788
102	0xb9718d38	-0.00023036159
103	0xbe1e9df7	-0.15489946
104	0x3d4e7f79	0.050414536
105	0x3e3376c4	0.17525774
106	0xbd86cbde	-0.06581853
107	0x3e056795	0.13027795
108	0xbe8e029c	-0.27736366
109	0xbdbf9f77	-0.093565874
110	0xbe57887e	-0.21048161
111	0x3e323170	0.17401671
112	0xbd88a5b6	-0.06672232
113	0xbe027a52	-0.12741974
114	0x3e919e46	0.28441066
115	0x3da006d7	0.078138046
116	0x3e201b1a	0.15635338
117	0xbdc5e14d	-0.09662113
118	0xbed1dfec	-0.4099115
119	0x3ee99b45	0.45626274
120	0x3e255520	0.16145754
121	0x3f0d7867	0.55261844
122	0xbe507a96	-0.20359263

conv.weight f4 [1, 1, 4]
0	0x3fe16a6b	1.7610601
1	0xbfc74309	-1.5567333
2	0xbef4e552	-0.47831208
3	0xbf91fe67	-1.1405762

fc1.weight f4 [40, 60]
0	0xbdc80a1f	-0.097675554
1	0xbeba228e	-0.36354488
2	0xbe1e4bf5	-0.15458663
3	0xbd7898fb	-0.06069277
4	0x3ea66a8a	0.32503158
5	0xbf21085c	-0.6290338
6	0x3e8d9f54	0.2766062
7	0x3e8c6698	0.27422023
8	0xbe4242a8	-0.1897074
9	0xbe2a0147	-0.1660205
10	0xbb5f9f65	-0.0034122106
11	0x3e54ab80	0.20768547
12	0x3ee7c1a2	0.45264918
13	0x3e44eefe	0.19231793
14	0xbdbfd88e	-0.093674764
15	0x3ec19229	0.37806824
16	0x3dcceda9	0.100062676
17	0xbbe05a18	-0.0068466775
18	0x3e70707a	0.23480406
19	0x3b0591dc	0.0020381128
20	0xbd52127d	-0.051287163
21	0x3e74c97d	0.23904987
22	0x3bf4d9cf	0.007472254
23	0xbde2282e	-0.1104282
24	0xbc09f9f9	-0.0084214145
25	0xbd3dea4e	-0.04636603
26	0x3d1b62a4	0.037935868
27	0xbeb9fec0	-0.3632717
28	0xbf5b87f5	-0.8575433
29	0xbd8f8965	-0.07008628
30	0x3e176a2b	0.14786594
31	0x3e6827c3	0.22671418
32	0xbe5346e9	-0.20632519
33	0xbe553cdb	-0.20823996
34	0x3dc05517	0.093912296
35	0x3c927514	0.017878093
36	0xbe8528ea	-0.26007777
37	0x3e549504	0.2075997
38	0x3c50f5a0	0.012753874
39	0x3d64187b	0.05568741
40	0x3e57780a	0.21041885
41	0xbd7478b7	-0.059685435
42	0xbeba2c40	-0.36361885
43	0x3e2853ad	0.1643817
44	0x3dbe2022	0.092834726
45	0x3de8a433	0.113594435
46	0x3d84b750	0.064802766
47	0x3ef5025c	0.47853363
48	0x3e8acc5c	0.2710904
49	0x3bfea4ad	0.0077710957
50	0xbdef78ed	-0.11692987
51	0xbdf2827f	-0.118412964
52	0xbf595ab1	-0.8490401
53	0x3eca4a25	0.39509693
54	0x3dde2cd3	0.10848393
55	0xbe7ea4c9	-0.24867548
56	0xbeb549ed	-0.35407963
57	0x3d981674	0.074261576
58	0xbe950a8f	-0.29109618
59	0xbdf39187	-0.118929915
60	0xbc6e0cab	-0.0145293875
61	0xbe9dc3cd	-0.30813447
62	0xbdb3516b	-0.087557636
63	0xbf0d26ad	-0.5513714
64	0xbd90eb7f	-0.07076167
65	0xbf09e910	-0.5387125
66	0x3e6c2661	0.23061515
67	0x3e9aca49	0.30232456
68	0xbea36a70	-0.31917143
69	0xbe8abf45	-0.27099052
70	0x3dbbf166	0.091769025
71	0x3e63b751	0.22237898
72	0x3e4c5126	0.1995283
73	0x3e836299	0.25661162
74	0x3e02857a	0.1274623
75	0x3e422964	0.18961102
76	0x3e8ffc85	0.28122345
77	0xbe3faa54	-0.18717319
78	0x3e0c2eb6	0.13689694
79	0x3dda4772	0.10658158
80	0xbbdf9e5f	-0.006824299
81	0x3ec2aedc	0.38024032
82	0x3d12fa29	0.035883103
83	0xbe181bf7	-0.14854418
84	0x3dab587a	0.08366485
85	0xbe86f4b6	-0.26358575
86	0xbea33ebc	-0.318838
87	0x3d09fb9f	0.03368723
88	0xbee092a3	-0.43861875
89	0xbc8d03fc	-0.017213814
90	0x3e7b8099	0.24560775
91	0x3eebcbff	0.46054074
92	0xbe3827ff	-0.17984007
93	0x3e564c31	0.20927502
94	0xbe1e14ee	-0.15437672
95	0x3d5e9020	0.054336667
96	0xbe81c0dc	-0.25342453
97	0x3e801559	0.25016287
98	0xbd2815a4	-0.041036263
99	0x3e55c4e7	0.20875894
100	0xbeb7e8cd	-0.359198
101	0x3c29c703	0.0103623895
102	0xbef1a9ed	-0.47199956
103	0x3ea29551	0.31754544
104	0x3d387cf0	0.045041025
105	0x3e872308	0.26393914
106	0xbe3f4674	-0.1867922
107	0x3d16217f	0.036653038
108	0xbe438500	-0.19093704
109	0xbdbb92e5	-0.09158877
110	0x3ebe4bdc	0.3716725
111	0xbefcb970	-0.49360228
112	0xbea81baa	-0.32833606
113	0x3e1fa7fc	0.15591425
114	0x3e0d123d	0.13776489
115	0x3e9546b0	0.29155493
116	0xbeb89e62	-0.36058336
117	0x3e8dacc0	0.2767086
118	0x3df0538a	0.11734684
119	0x3cc8ef5e	0.024528202
120	0xbce132f4	-0.027490117
121	0x3cd36680	0.025805712
122	0x3dac71a3	0.08420112
123	0xbe031f20	-0.12804842
124	0xbdfb1dfd	-0.12261579
125	0x3d90901c	0.07058737
126	0xbdd6a716	-0.10481088
127	0xbd603465	-0.054737467
128	0xbdd0e621	-0.102001436
129	0xbaccd3c4	-0.0015627076
130	0xbe03cac0	-0.12870312
131	0xbe0e4037	-0.13891684
132	0xbde7d2aa	-0.11319478
133	0xbc9b0aa6	-0.018925976
134	0x3dec9623	0.11552074
135	0x3d92eaa1	0.07173658
136	0xbde1728d	-0.11008177
137	0x3c7487bf	0.0149249425
138	0xbd08f77a	-0.033439137
139	0xbe2e082f	-0.1699531
140	0xbdd80119	-0.10547084
141	0xbe311e46	-0.17296705
142	0x3bacbe33	0.005271697
143	0x3d702746	0.058631204
144	0xbe0e6a4f	-0.13907741
145	0xbe101aef	-0.14072774
146	0x3d88295e	0.06648515
147	0xbe0373a3	-0.1283708
148	0xbb736dff	-0.003714442
149	0xbd280055	-0.04101594
150	0x3d162c8d	0.03666358
151	0xbd7a9271	-0.061174814
152	0xbc16d2a7	-0.009205497
153	0xbde098e4	-0.109666616
154	0xbce253b3	-0.027627802
155	0x3c4ddac5	0.012564366
156	0xbd2eb61a	-0.042654134
157	0x3d80399d	0.06260989
158	0x3d3dba22	0.04632009
159	0x3da11799	0.07865829
160	0xbcd6e799	-0.026233481
161	0xbddb07bf	-0.10694837
162	0xbcfad597	-0.030619426
163	0x3daccfb4	0.08438054
164	0xbd6016cd	-0.054709245
165	0xbd328ab8	-0.043589324
166	0xbda8b472	-0.08237542
167	0x3dab8ed1	0.083768494
168	0x3c15ebc5	0.00915045
169	0xbd7ff671	-0.062490884
170	0xb950ac5c	-0.00019900635
171	0x3d24e170	0.040254056
172	0x3d9ee3e5	0.07758311
173	0xbe013c5f	-0.12620686
174	0xbdc15d6a	-0.094416454
175	0xbd6f020a	-0.058351554
176	0xbc5d4204	-0.013504509
177	0x3d6a19e4	0.057153597
178	0xbc16f016	-0.009212514
179	0xbce67e30	-0.028136343
180	0x3eeec700	0.466362
181	0xbdf2a592	-0.11847986
182	0xbf0806a6	-0.53135145
183	0xbe1daaaf	-0.15397142
184	0x3ce6f790	0.028194219
185	0xbe14b6a8	-0.14522803
186	0x3da439dc	0.08018848
187	0xbe81bfbc	-0.25341594
188	0xbee7ea01	-0.45295718
189	0xbdefb9bc	-0.11705348
190	0x3d61da0a	0.05513958
191	0xbed16a74	-0.4090153
192	0x3d3b51df	0.045732375
193	0xbebf7e32	-0.37400967
194	0x3ea9d79b	0.33172306
195	0x3d5094c9	0.050923143
196	0xbc165e71	-0.00917779
197	0xbd3b1c08	-0.04568103
198	0xbe8b5a4e	-0.27217335
199	0x3dda37ca	0.10655172
200	0x3e00ad1a	0.12566033
201	0xbeb392a3	-0.35072812
202	0x3d1c8715	0.03821476
203	0x3e2bf49a	0.16792527
204	0xbd0a7d03	-0.033810627
205	0x3d7e5adf	0.06209838
206	0xbf2f5aa0	-0.6849766
207	0x3e31c461	0.17360069
208	0xbe312d15	-0.17302354
209	0xbd8e39aa	-0.06944592
210	0xbc8d8b99	-0.01727848
211	0xbe3ac685	-0.18239792
212	0x3d1318b9	0.03591225
213	0x3ec01bc7	0.37521192
214	0x3d12dc9f	0.035854932
215	0x3de2852b	0.11060556
216	0xbea6ebb6	-0.32601708
217	0x3e001f73	0.12511997
218	0x3e5a8165	0.21338423
219	0x3ef53e51	0.47899106
220	0xbcac77fb	-0.021053305
221	0xbe516766	-0.204496
222	0xbe465ee5	-0.19372137
223	0xbe8069ec	-0.25080812
224	0xbfb29c40	-1.3953934
225	0x3dfa5a3e	0.122242436
226	0x3edba4d1	0.42899182
227	0x3ed697ba	0.41912633
228	0xbe414b90	-0.18876481
229	0x3ed6010e	0.4179768
230	0x3eebf0c6	0.46082133
231	0xbd048f13	-0.03236301
232	0xbe1ef292	-0.1552222
233	0x3e9b6f79	0.30358484
234	0x3ef4422d	0.47706738
235	0xbef3f21b	-0.4764565
236	0xbe7040c1	-0.23462202
237	0xbf1431d7	-0.5788855
238	0x3f07d67d	0.5306166
239	0x3e0b4094	0.13598853
240	0xbd1c2323	-0.038119446
241	0xbd9c307f	-0.076264374
242	0x3ce49658	0.02790372
243	0xbda4c526	-0.080454156
244	0xbe18b2c1	-0.14911939
245	0xbdaeb8aa	-0.085313156
246	0x3cfce207	0.030869497
247	0xbc7e9100	-0.0155375
248	0xbd8b9751	-0.06815971
249	0xbdc9764b	-0.09837016
250	0x3d065411	0.032795016
251	0xbdcc02af	-0.09961449
252	0xbdef2ab9	-0.116780706
253	0xbc37b1b7	-0.011211804
254	0x3d9c85c4	0.07642701
255	0x3da080a4	0.07837036

fc1.bias f4 [40]
0	0x3e4755d7	0.19466339
1	0x3ee577b0	0.44817877
2	0xbe143921	-0.14474918
3	0xbdbb3f83	-0.09142973
4	0x3cdf093c	0.027226083
5	0xbdc5dea0	-0.09661603
6	0xbe82acef	-0.25522563
7	0xbe5f09a0	-0.21781015
8	0xbd4b20fa	-0.049591996
9	0xbed960e0	-0.42456722
10	0xbd47c2a2	-0.0487696
11	0xbe9b5932	-0.30341488
12	0xbde4b913	-0.111681126
13	0xbf06adc5	-0.526089
14	0x3e67573a	0.22591868
15	0xbdaeb5dd	-0.085307814
16	0x3b1c7d9c	0.002387858
17	0x3d36f439	0.044666503
18	0x3e5d5fe4	0.2161861
19	0x3e001b36	0.1251038
20	0x3d4a6127	0.049409058
21	0x3e977e31	0.29588464
22	0xbea089ff	-0.31355283
23	0xbe900f97	-0.28136894
24	0xbe150da2	-0.14555982
25	0xbec217e6	-0.37908858
26	0xbe68745c	-0.22700638
27	0xbe438ccd	-0.1909668
28	0x3d6ed159	0.05830512
29	0x3bb15a18	0.0054123513
30	0x3f23472f	0.6378049
31	0xbbdf676b	-0.0068177483
32	0xbcabd1c0	-0.02097404
33	0x3f151c14	0.5824597
34	0xbe09196b	-0.13388602
35	0xbd2b2296	-0.04178103
36	0x3eb8f2ee	0.3612284
37	0xbdb46a49	-0.08809335
38	0x3e5198e3	0.20468478
39	0xbe21f161	-0.15814735

fc2.weight f4 [5, 40]
0	0xbebe4a89	-0.3716624
1	0xbecf6bfc	-0.40512073
2	0xbdb9972b	-0.09062036
3	0x3f6686ca	0.9004942
4	0xbd900bf0	-0.07033527
5	0x3e48c22a	0.19605318
6	0x3e4a92d3	0.19782571
7	0x3e087f9a	0.13329926
8	0xbe20c1f3	-0.15698986
9	0xbeccf2d0	-0.40029
10	0xbdd76f04	-0.105192214
11	0x3e97adc8	0.29624772
12	0x3ea27cdb	0.31735882
13	0x3daacc73	0.08339777
14	0x3e305fda	0.17224064
15	0x3fd22523	1.6417583
16	0x3d4c62c0	0.049898863
17	0xbd88e688	-0.06684595
18	0xbd87b615	-0.06626526
19	0x3eaad717	0.33367226
20	0x3e732a71	0.23746659
21	0xbe99dabc	-0.30049694
22	0x3f430fd0	0.76196
23	0x3d93393b	0.0718865
24	0xbd5a1b54	-0.05324872
25	0x3f435780	0.7630539
26	0x3ec4f464	0.38467705
27	0x3f57356f	0.8406591
28	0xbf4a1363	-0.7893583
29	0xbd7100ce	-0.058838658
30	0xbf21fa65	-0.63272697
31	0xbdedd615	-0.116130985
32	0xbdf0ebfe	-0.11763762
33	0xbe7d874a	-0.2475864
34	0xbcd49926	-0.025951933
35	0x3ea76d55	0.327006
36	0xbf2c28cc	-0.6724975
37	0x3eff837f	0.4990501
38	0x3f31dcfc	0.6947782
39	0x3e320b6c	0.1738717
40	0xbe512d5e	-0.20427462
41	0xbccdec55	-0.025137106
42	0xbcffd9dd	-0.031231815
43	0xbfac3613	-1.3454002
44	0x3dffa9b8	0.12483543
45	0x3e394664	0.18093258
46	0x3e596022	0.21228078
47	0xbf454ca7	-0.7707009
48	0xbdb20546	-0.08692412
49	0x3e825577	0.2545583
50	0x3ee2770a	0.44231445
51	0xbfc7490a	-1.5569165
52	0xbee6630a	-0.44997436
53	0x3ba73e66	0.005103874
54	0xbf991d7c	-1.1962123
55	0xbfe615ed	-1.7975441
56	0x3f8b752a	1.0895131
57	0x3e23ffc1	0.16015531
58	0x3e8b7370	0.2723651
59	0x3ea6aa9d	0.32552043
60	0xbddb9fd4	-0.10723844
61	0x3e5039b7	0.20334516
62	0xbf2ef186	-0.68337286
63	0xbf103d32	-0.56343377
64	0x3d79cd49	0.06098679
65	0x3ddadaf2	0.10686292
66	0x3ed85f76	0.4226033
67	0xbf96a876	-1.177016
68	0x3f8c530f	1.0962847
69	0xbd0ef7ce	-0.034904294
70	0xbe661547	-0.22469054
71	0x3f2f884e	0.6856736
72	0xbdca96d1	-0.09892047
73	0x3e51c51b	0.20485346
74	0x3e0be406	0.13661203
75	0x3e9f6016	0.31127995
76	0x3f886f87	1.0659035
77	0xbcf0dfbb	-0.029403558
78	0xbcaf6b7d	-0.02141356
79	0xbef27c37	-0.47360393
80	0x3e115157	0.14191185
81	0x3e7959c2	0.24350646
82	0xbdca5944	-0.09880307
83	0x3e84ce49	0.25938633
84	0x3d76c088	0.060242206
85	0x3df87081	0.121308334
86	0x3e1e127c	0.15436739
87	0x3e4200f4	0.18945676
88	0xbb8a9d88	-0.004230205
89	0x3f1e5150	0.61842823
90	0xbc2f71ef	-0.010708316
91	0x3c8da224	0.017289229
92	0x3df0aafe	0.11751364
93	0xbc0b694a	-0.00850899
94	0xbe725f6a	-0.2366921
95	0x3f41365d	0.75473577
96	0xbe3b1504	-0.18269736
97	0x3e326f9e	0.17425391
98	0xbd887f96	-0.0666496
99	0x3e755a4f	0.23960231
100	0xbf32b193	-0.69802207
101	0x3e06aefd	0.1315269
102	0x3e98011a	0.2968834
103	0x3eae3e32	0.34031826
104	0xbd00c868	-0.031441122
105	0xbe81cad1	-0.2535005
106	0xbf77f3c6	-0.96856344
107	0xbf7c1755	-0.984731
108	0xbecb1998	-0.39667964
109	0xbd60d075	-0.0548863
110	0x3e795cde	0.24351832
111	0xbfd3d625	-1.6549727
112	0x3e003eef	0.12524007
113	0xbf380e25	-0.7189658
114	0xbe1a815e	-0.15088412
115	0x3f0d917a	0.55300105
116	0x3ec641ac	0.3872198
117	0xbd5a9c35	-0.053371627
118	0xbf1ddd3a	-0.6166569
119	0xbdaa62b4	-0.083196074
120	0xbdac2212	-0.08404936
121	0x3d6d6596	0.057958208
122	0x3e1bbc21	0.15208484
123	0xbf35c3fc	-0.71002173
124	0x3ded783f	0.11595201
125	0x3e1499f7	0.14511858
126	0x3e004fbd	0.12530418
127	0xbc92c72d	-0.01791724
128	0x3b9e4be5	0.0048308247
129	0xbee750d5	-0.45178857
130	0x3dd20c12	0.102562085
131	0x3eafee9c	0.34361732
132	0xbe045e90	-0.12926698
133	0x3e01597e	0.12631795
134	0x3f1ea875	0.61975795
135	0xbf9686a1	-1.1759835
136	0xc00e9c34	-2.228284
137	0x3d2d1413	0.042255472
138	0x3dcb1212	0.09915556
139	0xbfcd4b00	-1.6038513
140	0x3ef6851b	0.48148426
141	0xbd9a2982	-0.07527448
142	0xbf2c98d6	-0.6742071
143	0x3eb0e5ac	0.34550226
144	0xbd04d680	-0.032431126
145	0xbfd410b7	-1.6567601
146	0xbee98ba7	-0.4561436
147	0xbf20d858	-0.62830114
148	0xbfb85375	-1.4400469
149	0x3d2e7745	0.042594213
150	0x3e8cf998	0.27534175
151	0xbd8d2d09	-0.068933554
152	0x3d8a4341	0.06751109
153	0x3e4c121b	0.19928782
154	0xbd4ae402	-0.04953385
155	0xbff684d8	-1.9259291
156	0xbf69e8d1	-0.91370875
157	0xbfa6c091	-1.3027517
158	0xbce3a827	-0.027790142
159	0xbefe2051	-0.4963403
160	0x3d36bde9	0.044614706
161	0xbaf89c4e	-0.0018967481
162	0xbdf8b3b9	-0.121436544
163	0x3f60115b	0.8752648
164	0xbdc3a2ab	-0.09552511
165	0xbfdbeacb	-1.7181028
166	0xbf89f7e3	-1.0778774
167	0x3eb57518	0.35440898
168	0x3d594638	0.05304548
169	0xbf757d17	-0.95893997
170	0xbf8fc71d	-1.123264
171	0x3e754ba6	0.23954639
172	0x3ec2e143	0.38062486
173	0xbfa4b4cd	-1.2867676
174	0xbeea8f72	-0.45812565
175	0x3ef2bede	0.47411245
176	0xbdaab35b	-0.083349906
177	0xbfbb439a	-1.4630005
178	0xbe5290fe	-0.20563123
179	0x3e44148c	0.19148463
180	0xbd016d64	-0.031598464
181	0x3eae6325	0.34060016
182	0x3d0b80c2	0.03405834
183	0xbf474ee6	-0.77854764
184	0x3d624c6a	0.055248655
185	0x3e245270	0.16047072
186	0x3e73ee7d	0.23821445
187	0x3f4dbf37	0.80369896
188	0xc025d76e	-2.5912738
189	0xbe248096	-0.16064677
190	0xbdbbc645	-0.09168676
191	0x3e3c6a25	0.18399866
192	0xbdd35eec	-0.10320839
193	0x3ee57fcf	0.44824073
194	0xbcbd8b73	-0.023137784
195	0x3e6b04b7	0.22951017
196	0xbd31a07f	-0.04336595
197	0x3ed283a0	0.41116047
198	0xc017e057	-2.3730676
199	0xbd70353f	-0.05864453

fc2.bias f4 [5]
0	0xbf04f66e	-0.5193852
1	0x3e3eb2b0	0.18622851
2	0xbe0a050a	-0.13478485
3	0x3eeb6aec	0.45980012
4	0x3e9f589c	0.3112229
